pytorch/Model_nn_0.pt (torch, 4333 bytes, 7 tensors)

hid1.weight f4 [10, 20]
000000 a4 bf 7f 3e 36 13 86 3e 8a af e6 bd 41 40 2c 3e
       0.24975449 0.26186532 -0.1126395 0.16821386
000010 5a bf 27 3e d6 57 ba bd e2 43 c2 be 47 79 15 be
       0.16381589 -0.090987846 -0.37942415 -0.14597045
000020 e4 f5 c2 bd 73 0a 8e 3c 32 b9 6f be 55 25 b2 3e
       -0.09519556 0.017338967 -0.2341049 0.34794107
000030 1e 4f 54 be 3d 4e 2d bc bd 27 02 be ba 16 98 bd
       -0.20733306 -0.0105777355 -0.12710471 -0.0742621
000040 33 8d 79 3e 59 11 18 3e 3e e4 44 bc 2f 96 b7 be
       0.2437027 0.14850368 -0.012017308 -0.35856768
000050 68 27 1e 3d 61 a4 8d bd 22 ae a8 bd 8a 94 8f 3e
       0.0386118 -0.069161184 -0.08236338 0.28043014
000060 5f 14 04 be 18 ac bd bd 94 2f b7 be 53 db e4 3e
       -0.12898396 -0.0926134 -0.35778487 0.4469858
000070 86 17 5a bd 5c bf 89 be 2f 70 7b bc e7 b0 1e be
       -0.05324509 -0.26903808 -0.015346571 -0.1549717
000080 68 ac 01 3f eb 98 2b be 87 8b fc bd 3c e3 10 be
       0.50653696 -0.16757552 -0.123313 -0.14149183
000090 45 54 b7 be e4 f8 d5 bd 2a b5 13 be 45 24 1d be
       -0.3580648 -0.10447863 -0.14424577 -0.15345867
0000a0 dc 0b f2 3c 25 71 1b 3e bb 93 9d 3d 42 28 32 3e
       0.02954667 0.1517988 0.07694193 0.1739817
0000b0 8a 2d d5 be ea cc 1b 3d 58 98 16 3e 37 88 b4 be
       -0.41636306 0.03803722 0.14706552 -0.35260174
0000c0 be 74 24 bd 3e 90 b7 3c ee 34 de be 48 48 c0 3e
       -0.040150397 0.022407647 -0.43399757 0.37555146
0000d0 cf bc 2f be ba 39 2f be 6c da 2e bc ca a5 0c 3f
       -0.17161869 -0.17111865 -0.010672193 0.54940474
0000e0 8c 73 44 3e a2 ae 42 bd 13 45 68 be 8b d5 b9 3e
       0.19184703 -0.047529824 -0.226826 0.36295733
0000f0 35 67 8b 3e 86 aa 09 bd dd 35 4e 3d bb fe 9e be
       0.27227178 -0.03360989 0.050344337 -0.3105372
000100 fc 87 48 3e 44 64 98 3e 0d cd 42 be 0f 71 de bd
       0.19583124 0.29763997 -0.19023533 -0.10861408
000110 fe 9d d8 be 29 57 aa 3e 5b 13 6c be 62 1a 4a bd
       -0.42308038 0.33269623 -0.23054259 -0.049341567
000120 81 85 79 3e b9 db b7 bd 02 5e ee 3e 6d 55 9e be
       0.24367334 -0.08977456 0.46556097 -0.3092455
000130 04 9b 48 be 32 d4 94 3e ae 26 00 be 77 80 fe bd
       -0.19590384 0.29068142 -0.12514755 -0.124268465
000140 00 ee 5b 3c 14 3c 4c be 3d c4 74 be 01 d7 da be
       0.013423443 -0.19944793 -0.23902984 -0.4274216
000150 e0 7f 05 3e 3b 88 c8 3e 03 ee d9 be a9 7e a6 3e
       0.13037062 0.39166436 -0.425644 0.3251851
000160 d2 5d 58 be 77 93 88 bd 9e 2f b6 3d b8 9b 06 3e
       -0.2112954 -0.06668752 0.08895801 0.1314534
000170 55 93 03 be d1 58 1f 3e 8f 3a ed be 2f ce ad bd
       -0.12849171 0.15561225 -0.4633374 -0.08486592
000180 17 7d bf be 69 bc 42 be 5c 5d 60 be 21 ee 7f bd
       -0.37400123 -0.19017185 -0.21910614 -0.062482957
000190 81 09 af be 7a db 34 3e 11 60 19 3d 2a 55 22 3e
       -0.34186938 0.17661849 0.03744513 0.158528
0001a0 17 1e 61 bc 75 bc a7 bd 38 4a 91 bd 8e 9d a8 be
       -0.013740084 -0.08190242 -0.07094234 -0.32932705
0001b0 f5 32 49 be 82 d3 8a be 88 eb 03 3f 66 67 b8 be
       -0.19648345 -0.27114493 0.5153127 -0.36016387
0001c0 e7 c3 50 3e 9b 2b 24 3e 1c b0 45 3c eb a2 ed bd
       0.20387231 0.16032259 0.0120659135 -0.1160334
0001d0 67 b0 e4 bc c0 ae b2 3e 57 3e 85 3e d2 13 ab be
       -0.027916146 0.3489895 0.26024124 -0.3341356
0001e0 7f 47 2e be 1c 69 bf be d8 6c c3 be 6b 0f 61 be
       -0.17019461 -0.3738488 -0.3816898 -0.21978538
0001f0 2c 84 85 be ac 52 c2 3d 7b 3c 0a 3e a1 43 93 3d
       -0.26077402 0.09488425 0.13499634 0.071906336
000200 63 b0 da bb 37 3d 97 be e4 45 90 bc fa 67 b5 3c
       -0.006673859 -0.2953889 -0.017611451 0.022144306
000210 42 b7 7c be 48 75 40 bc 62 74 af be 18 5c 35 3d
       -0.24679282 -0.011746712 -0.3426848 0.04427728
000220 ec 6a ba be 22 8c bf 3e eb f3 64 be 8d e4 36 be
       -0.364097 0.374116 -0.22358672 -0.17860623
000230 d8 82 2b 3d e4 23 ad be 10 d8 bc be fb 13 bb 3d
       0.04187283 -0.33816445 -0.36883593 0.0913467
000240 bd 49 dd be 2d d7 83 3e fb f8 6e be 61 18 ce 3e
       -0.4322032 0.25750104 -0.23337166 0.40252975
000250 33 4d 65 3d 69 65 c2 bd 68 b8 a8 bd c8 22 81 3e
       0.055981826 -0.09491999 -0.08238298 0.25221848
000260 9e 1b f7 3e 97 52 a7 3e 88 97 91 3e c5 8b e6 3e
       0.48263258 0.326802 0.28435922 0.4502851
000270 2f d5 d2 3d ea 8c 94 be 18 ea 27 be 27 ed 84 3d
       0.10294568 -0.2901376 -0.16397893 0.06490546
000280 63 92 49 3e 7b 8c 8e be 21 98 6d be f2 0b e3 3e
       0.19684748 -0.27841553 -0.23202564 0.4434505
000290 50 a1 c4 be 1f f1 35 be 63 46 cf 3e 0e 76 0a bc
       -0.38404322 -0.17767762 0.40483388 -0.008450998
0002a0 72 5f 8d bd 4e 64 e4 3e 19 bd 53 3e 78 92 96 be
       -0.069029704 0.44607776 0.20677604 -0.29408622
0002b0 c9 5d 39 bd 70 d4 53 be 5e 31 11 3e 23 58 62 be
       -0.045255456 -0.20686507 0.14178988 -0.22103934
0002c0 3d e9 2a be 65 1d 88 3d e2 5a 8f be f4 c8 2f be
       -0.16690536 0.066462316 -0.27999026 -0.17166501
0002d0 43 05 3b 3e 23 c2 75 be 6c e9 c9 be ba 5f 14 be
       0.18263726 -0.23999839 -0.394359 -0.14489642
0002e0 5a 3e 7f 3e 7f 24 f8 3c 68 f4 87 3e d5 74 fb 3d
       0.24926129 0.03029084 0.26553655 0.12278143
0002f0 d0 8c 3c 3e 96 71 9b 3e e6 fb 83 3e d3 dc e3 be
       0.1841309 0.30360097 0.2577812 -0.44504413
000300 70 2a ce be 45 1d be be 08 80 01 be ad 41 b4 3e
       -0.40266752 -0.37131706 -0.12646496 0.35206357
000310 58 99 60 be 6c 1b 52 3e aa 7b f2 bd 5a 22 e5 be
       -0.21933496 0.20518273 -0.11839993 -0.4475277

hid1.bias f4 [10]
000000 bf b3 72 3a d9 d0 07 3a 8c 41 53 3b 06 46 25 bb
       0.00092583516 0.0005180962 0.0032235114 -0.002521874
000010 ad cb ad ba f8 0d 81 bb 3d 6f aa b9 bc c7 2a 39
       -0.0013259553 -0.003938433 -0.00032507806 0.0001628687
000020 40 9d 93 b8 d4 71 10 b9
       -7.038796e-05 -0.00013775314

hid2.weight f4 [10, 10]
000000 ad 53 08 be 9a 07 a6 be 34 cb b2 3e b2 79 00 3f
       -0.1331317 -0.32427675 0.34920657 0.5018569
000010 9a 39 00 be 73 cf bd 3e 92 df 8b be 21 df 95 be
       -0.12521973 0.37072334 -0.27319008 -0.29271796
000020 5f 4f 60 be 1b 95 f2 be 95 32 08 3f 86 7c d0 be
       -0.21905278 -0.47379383 0.5320218 -0.40720004
000030 63 ec 3c be c3 3c a7 3e bb 75 d8 3e 37 24 de 3d
       -0.1844955 0.32663545 0.4227732 0.10846751
000040 b2 0c 92 be c2 4f b6 3e ac c5 8b 3e 11 6f 94 be
       -0.2852531 0.35607725 0.2729925 -0.28990987
000050 47 34 e3 3d ca 9e 89 3e 5a 97 b2 3e 45 75 bd 3e
       0.110939555 0.2687896 0.34881097 0.37003532
000060 53 37 b3 be 8b 8c c1 3e 77 90 ef be 03 07 dd 3e
       -0.35003147 0.37802538 -0.46789905 0.43169412
000070 29 ea f8 bd 61 ce 06 bf ed c8 f5 bd 49 e1 d2 3e
       -0.121540375 -0.5265866 -0.12001214 0.41187504
000080 74 43 92 be 30 b1 4c be 1b e0 df be 46 47 c4 bd
       -0.28567088 -0.19989467 -0.43725666 -0.09583907
000090 37 26 9d 3d 3a fe ce be 17 29 81 3e 19 96 e5 be
       0.076733045 -0.40428334 0.25226662 -0.44841078
0000a0 66 03 24 be da fd b3 3e be 00 52 bd 67 5d e5 3d
       -0.16016921 0.3515461 -0.05127024 0.11199456
0000b0 66 53 80 be a6 92 12 3e 4d 7f 59 be 00 2e d7 3e
       -0.25063628 0.14313754 -0.21239968 0.42027283
0000c0 7b 1d 9f be 38 b7 fd 3e ed e3 0b 3f 51 86 12 be
       -0.3107718 0.49553847 0.5464466 -0.1430905
0000d0 58 a0 c2 be 71 08 16 3e cd 57 e4 3e b7 14 44 3d
       -0.38012958 0.14651658 0.44598237 0.047871318
0000e0 2a d4 06 bf d0 d2 f5 3e 45 68 66 be b2 a7 e9 be
       -0.52667487 0.480124 -0.22500713 -0.45635754
0000f0 fb 22 97 3e df 7c 7f 3e 76 c0 d6 3e 4e 44 99 3d
       0.29518875 0.24949978 0.4194371 0.07483731
000100 b8 46 dd be 47 f3 02 bf ed 56 32 be 2e e4 94 be
       -0.43218017 -0.5115246 -0.17415972 -0.29080337
000110 13 1b 95 3e f0 1b 84 be 52 8d da bc 81 6c e9 be
       0.29122218 -0.25802565 -0.026678715 -0.45590594
000120 32 94 d2 3e fe db 9f 3e 5f cd 06 be 8a 51 e0 be
       0.4112869 0.31222528 -0.1316428 -0.4381221
000130 fb e4 87 3e 92 2d 5a be 67 d6 ce 3e 6f 16 86 be
       0.26541886 -0.21306446 0.4039795 -0.2618899
000140 1c d6 19 be 8d 2e 47 3e 9c f3 f7 bb a1 80 73 3e
       -0.15023082 0.19451351 -0.0075668823 0.23779537
000150 63 a7 b9 be 35 23 75 be f2 8c c6 3e 30 08 32 3e
       -0.36260518 -0.23939212 0.38779408 0.17385936
000160 7c f2 90 be 1f c1 f9 3e 73 88 5d 3e 7d 1d f8 3e
       -0.2831 0.48780152 0.21634082 0.48459998
000170 0c 0d 49 bd 5f f4 95 3d 93 13 15 3e 91 b4 da bd
       -0.049084708 0.07322001 0.14558248 -0.106789716
000180 ae 1b c6 3e fa fd a8 3e 0b 29 7e 3e e6 04 a4 be
       0.38692993 0.3300627 0.24820344 -0.32034987

hid2.bias f4 [10]
000000 f0 3b cd bc a5 1c 2e bd 2d 0c 3d 3c 34 a6 34 bc
       -0.025052994 -0.042507786 0.011538547 -0.011025954
000010 f1 ef 62 bc fa 20 8f 3c a2 07 3a 3c 98 6f a9 bb
       -0.013851152 0.01747178 0.011354359 -0.0051707737
000020 fa ce 78 bc 33 4b 5a 3b
       -0.015186066 0.0033308982

hid3.weight f4 [10, 10]
000000 a7 28 15 3e 52 6c 51 3d bd 52 2b bc 10 80 95 be
       0.14566289 0.051128693 -0.010456738 -0.29199266
000010 83 2d 05 3f 78 06 ed be c8 4e 94 be b5 d1 92 3e
       0.5202257 -0.46293998 -0.28966355 0.2867562
000020 20 b9 e7 3e f6 9a 9b 3e f0 e0 59 3e 2f d1 fa 3e
       0.45258427 0.30391663 0.21277213 0.4898772
000030 09 ef c4 be 41 ca 69 be a2 52 f3 3d a0 ca 0a 3e
       -0.3846362 -0.2283106 0.11880995 0.13553858
000040 35 ee 05 be d0 e1 cd 3d 7b 12 05 3f da 01 58 3e
       -0.1307915 0.10052836 0.51981324 0.21094456
000050 54 7c ef be 02 e1 2b bc 71 e9 cf 3e 63 09 f0 bd
       -0.46774542 -0.010490658 0.4060779 -0.117205404
000060 22 fb 37 be 3f 38 18 bd b9 a9 05 3f 48 d1 2e be
       -0.17966893 -0.037163015 0.522121 -0.17072022
000070 50 d4 d9 be 1d 46 c1 be 64 54 d6 be 53 c3 05 bf
       -0.42544794 -0.37748805 -0.4186126 -0.52251166
000080 ca 3f 84 3e 30 30 ae 3e 97 1a bc be e4 f7 c3 3e
       0.25829917 0.3402114 -0.36739036 0.38275063
000090 84 f7 8b 3e 31 30 27 be af 33 bd 3d 34 f6 28 be
       0.27337277 -0.16326977 0.092383735 -0.16500169
0000a0 fc 81 00 bf 92 39 06 be 01 17 09 bf a5 79 0a 3f
       -0.5019834 -0.13107899 -0.53550726 0.54091865
0000b0 38 9f e4 be 20 ac 66 3d 7c 53 e1 be d3 49 53 3e
       -0.44652724 0.056316495 -0.44009006 0.2063363
0000c0 e8 16 a4 3d 9b 55 4c bc c3 26 04 bf 5f af 48 be
       0.080121815 -0.012471582 -0.51621646 -0.19598149
0000d0 b9 9d c7 3e 51 00 37 be 18 97 01 3f 03 48 4e 3d
       0.3898752 -0.17871214 0.50621176 0.050361644
0000e0 da 58 cb 3e 43 93 fc 3e 93 ef 83 3e d8 42 a1 bd
       0.39716226 0.49331102 0.25768718 -0.078740776
0000f0 d0 cd cc 3d f0 50 0e bf 3d 0c 00 be be a0 5a 3e
       0.10000193 -0.5559225 -0.12504669 0.21350381
000100 5b 52 7f 3d c0 58 c1 be 5b d2 4f be 19 f3 01 bf
       0.0623344 -0.37763023 -0.20295088 -0.5076156
000110 cc e4 8e 3e 15 72 a7 bd 99 4d db be e3 ea aa 3e
       0.27908933 -0.08176056 -0.4283264 0.3338233
000120 f8 e0 dc be 71 f2 5d 3e b1 94 03 bf 71 6d 83 be
       -0.43140388 0.21674515 -0.5139876 -0.25669435
000130 38 d4 9d 3e a3 63 8e be b1 2a 2e be 44 11 f4 3e
       0.30825973 -0.27810392 -0.17008473 0.47669423
000140 77 27 e1 be bc d6 04 bf b3 03 c6 3e 1e 5f 8b be
       -0.43975422 -0.5189016 0.38674697 -0.27221006
000150 8f 4c 9c 3d ff f7 70 3d ec ec 87 be 37 8d 27 be
       0.0763179 0.058830258 -0.26547945 -0.16362463
000160 43 91 ad be 37 ca e2 be 2b 29 83 be f7 b3 ee be
       -0.33899888 -0.44294903 -0.25617346 -0.46621677
000170 50 e4 d3 bc 07 1c 06 bf 16 4f 41 be 66 77 e0 3e
       -0.025865704 -0.52386516 -0.18877825 0.43841094
000180 f0 bd 01 3f 5e aa 5c 3e 55 21 62 3e b9 1b a0 be
       0.50680447 0.21549365 0.22083028 -0.3127115

hid3.bias f4 [10]
000000 a5 d2 37 bc 3c 96 a7 bc 72 44 0b 3b c1 2a 0c 3c
       -0.011219655 -0.02045738 0.0021250513 0.008555115
000010 5c 40 6e bc f7 80 40 3c 26 2a 42 bc ca 45 cf 3c
       -0.014541712 0.011749498 -0.011850869 0.025301833
000020 19 7a 6e bb 34 4c 17 3c
       -0.0036388694 0.009234477

oupt.weight f4 [1, 10]
000000 80 4a b7 be 39 26 25 bf 45 b2 9d be 4a fe 96 3e
       -0.35799026 -0.6451145 -0.3080007 0.29490882
000010 25 f1 23 bf 90 40 29 3f 34 5d e7 3e a7 46 20 3f
       -0.6403983 0.6611414 0.45188296 0.62607807
000020 32 b3 cc be 10 a3 21 3f
       -0.39980465 0.6313944
