pytorch/Model_fcn_0.pt (torch, 4343 bytes, 7 tensors)

hid1.weight f4 [10, 20]
000000 aa ce 11 be 3d e7 da 3e 72 64 21 be e6 b8 93 bd
       -0.14238992 0.42754546 -0.15760973 -0.07213001
000010 0d a9 72 3d 43 8b 8b be 63 84 bf be 4b 3b 84 3e
       0.05924325 -0.27254686 -0.3740569 0.25826487
000020 b8 f5 15 3e 55 85 8b 3e ac 26 ad 3e 4e dc 08 3e
       0.14644516 0.27250162 0.33818567 0.1336529
000030 15 d4 a3 3c ca 4c 8c 3e 35 71 76 be cc 43 db 3e
       0.01999859 0.27402335 -0.24066623 0.42825162
000040 5b fd a2 be 62 22 a8 be 88 5d a8 be c2 03 87 be
       -0.3183392 -0.32838732 -0.3288386 -0.26370054
000050 b9 a5 98 bc c8 56 f8 bd 9a a5 80 3d 02 a3 dd bb
       -0.01863371 -0.12125927 0.06281586 -0.006763817
000060 e9 04 4a be 74 54 51 3d b8 9f bb 3e 3a 89 30 be
       -0.19728436 0.05110593 0.36645293 -0.17239848
000070 c8 8f ca 3e 4d 4f 4e 3e a1 a8 d8 be 1b 0b a8 be
       0.3956282 0.20147438 -0.42316154 -0.32820973
000080 62 2b 9d 3e 04 46 9f 3d f6 e7 ab 3e 78 5d d0 be
       0.3069716 0.07777026 0.3357541 -0.4069631
000090 d0 d7 aa be d1 71 d6 3d 16 64 4a be 14 73 40 3e
       -0.33367777 0.104709275 -0.19764742 0.18793899
0000a0 04 a2 c0 3c c6 3f ce be 52 bf 48 be 4f 8b 56 be
       0.023514755 -0.4028303 -0.19604233 -0.2095158
0000b0 a8 8f a9 3d c6 45 67 be e0 9b 61 3e 5b 2e 0f 3e
       0.082793534 -0.2258521 0.22032118 0.13982527
0000c0 1c 78 91 be fa 9c f6 bd 9a 04 cc 3e b9 97 0b be
       -0.2841195 -0.1204166 0.3984726 -0.13632096
0000d0 a1 ec e5 bc d4 ef 2a 3e f5 b6 99 3e 73 c2 68 3e
       -0.028066935 0.1669305 0.30022398 0.22730426
0000e0 2f 14 19 be 44 f2 f5 3d 29 6c 8c be 4c 14 d8 3e
       -0.14949106 0.12009099 -0.2742627 0.42202985
0000f0 32 d6 fb bd 31 d8 f5 3c 08 cb 0d be 1d 2f 8d 3e
       -0.12296714 0.030010315 -0.13846982 0.27575007
000100 c3 0f b2 3e 1c 59 40 3e 5d be af bd e4 21 a7 be
       0.3477765 0.18783993 -0.08581231 -0.32643044
000110 03 d3 03 be ee af 36 3e bb c4 e5 be 3c 3a 82 bd
       -0.12873463 0.1784055 -0.44876656 -0.063587636
000120 95 9a 5d be 2a 74 9c be ec 70 27 3e 1e 4f ca bd
       -0.21641 -0.30557376 0.1635167 -0.09878372
000130 04 76 c5 be 9c 63 ef 3d c4 27 61 be e5 f1 b8 3e
       -0.385666 0.11688921 -0.21987826 0.3612205
000140 0b 8b ce be bb d0 87 3c db 8d b0 3d 96 7a 68 3e
       -0.40340456 0.016579023 0.08620807 0.22703013
000150 ed ac 99 3e ac ed a5 be e9 92 d2 3e 0c c8 a1 be
       0.30014744 -0.32407892 0.4112771 -0.31597936
000160 ac 61 25 bd bb 96 dd 3e ed 76 74 be 67 73 ee bd
       -0.04037635 0.4327906 -0.23873492 -0.11643105
000170 d0 0e b1 be e8 15 ff bc 50 7e 39 3e b8 6b f5 3d
       -0.34581614 -0.031138375 0.1811459 0.11983436
000180 e3 ed 96 be 82 0c da be 3e 09 9f be e7 d8 f0 bd
       -0.29478368 -0.42587668 -0.3106174 -0.11760121
000190 58 3b 93 be ce d4 72 be e4 2a 4b 3e 78 34 1a 3e
       -0.28756213 -0.23713991 0.1984058 0.15059078
0001a0 99 38 1d 3e 94 24 fb bc 0d 87 32 3b 44 d6 4a 3d
       0.15353622 -0.03065709 0.002724114 0.049520746
0001b0 b0 55 b6 be f0 73 99 be 02 8a 58 3e 70 c9 d3 3e
       -0.3561225 -0.29971266 0.21146396 0.41364622
0001c0 17 ed ae 3e fe 9d 1f be ea ad bc be bc 47 28 3d
       0.3416526 -0.15587613 -0.36851436 0.041084036
0001d0 4a 0f 93 be f6 9f ab 3e 68 2a 20 39 1c 0b a6 3e
       -0.28722602 0.33520478 0.00015274587 0.3243035
0001e0 fd bb 8d be 76 22 23 3e cb 1e cc bd b5 4b 97 3c
       -0.27682486 0.15931115 -0.09966811 0.018468717
0001f0 a6 d1 8a be f6 99 46 bd 46 e0 20 be 55 91 d9 be
       -0.27113074 -0.048486672 -0.15710554 -0.42493692
000200 91 48 ad 3e e2 4b 82 3e d5 6e 81 be 5f 52 9e 3d
       0.33844426 0.2544852 -0.2527987 0.07730555
000210 98 fe a1 3e 66 2d 9e be 3c 8b c5 3c 3d b6 c0 be
       0.31639552 -0.3089401 0.024114244 -0.37639037
000220 e4 38 08 3e 8f 1a 0c be d6 df a0 be c7 2a 69 3d
       0.13302952 -0.13682006 -0.31420773 0.05692556
000230 97 ba be 3e a3 cb 49 be 9d 3d c9 3d 74 93 cf 3e
       0.37251732 -0.19706587 0.09826205 0.40542185
000240 f5 84 a4 bd 68 a0 87 be ca 64 15 be 2a 1d 9f be
       -0.08033172 -0.26489568 -0.14589229 -0.31076938
000250 53 4e da bd 8b ed e5 bd 4c 2e 57 3e 94 9f d3 3e
       -0.106594704 -0.11226948 0.21013755 0.41332686
000260 a2 27 3b 3e 92 ca ef be 46 9c aa 3e 32 a9 00 3d
       0.18276837 -0.46834236 0.33322352 0.031411357
000270 4d a8 5d 3e 3c 58 71 be c8 c6 aa bd e8 c9 48 be
       0.21646233 -0.23568815 -0.08338696 -0.19608271
000280 33 33 86 be e2 ab e2 3e 9c f0 cf 3e 2a e6 60 be
       -0.26210937 0.4427176 0.40613258 -0.219628
000290 52 c2 ce be 85 de 8e 3e 7d 62 2a 3e 1f e9 f2 bd
       -0.4038263 0.27904144 0.16639133 -0.118608706
0002a0 9a 28 83 3d 0d 96 29 3e 8b a2 f5 bd f3 23 5b be
       0.064042285 0.16561146 -0.11993893 -0.21400432
0002b0 19 bf 92 be 7b ed 2a 3e ed d3 05 be 5b 70 55 bc
       -0.2866142 0.16692154 -0.13069125 -0.013027276
0002c0 0e 47 e1 3d 47 d0 fe bd d0 44 c0 be e6 72 a2 3e
       0.10999881 -0.124420695 -0.375525 0.31728286
0002d0 8a ab 4a be 62 77 d5 be 1f 5e 2d 3d 5c 99 b8 be
       -0.19792 -0.41692644 0.04232609 -0.36054504
0002e0 79 74 d1 3e ce d0 3d 3e e3 95 62 3e a7 7a cc be
       0.40909174 0.18536684 0.2212749 -0.39937326
0002f0 0a 54 9a be 82 94 26 3e b9 7e 20 3e af 6b 97 be
       -0.30142242 0.16267589 0.15673341 -0.29574344
000300 b9 14 3a be 47 ce 71 3c 7e d8 f5 3d ca 96 9e 3d
       -0.18171968 0.014758653 0.12004183 0.077436045
000310 0a 38 6d 3b 3f df 49 be 67 7b 70 b9 6c d3 9a 3d
       0.0036196732 -0.19714068 -0.00022934155 0.07559857

hid1.bias f4 [10]
000000 02 e9 ab 39 3b d3 87 b7 f8 24 de 37 ed 19 10 b9
       0.00032789266 -1.6191616e-05 2.6481677e-05 -0.00013742568
000010 dc 98 29 b7 5e 98 bc 37 ef 37 ca b5 ec ea a2 39
       -1.0108775e-05 2.2482298e-05 -1.5066452e-06 0.00031074078
000020 6a 07 05 39 8b 07 b6 b8
       0.0001268663 -8.679841e-05

hid2.weight f4 [10, 10]
000000 7c 90 73 3e 46 9d 98 be 73 45 b3 bd d2 99 d7 be
       0.23785585 -0.2980749 -0.08753481 -0.42109543
000010 75 e0 60 be 20 48 7b bd 1a bc f9 3e 9d e3 4d 3e
       -0.21960624 -0.06134808 0.48776323 0.20106359
000020 fb 52 04 3f 6e 6b cc 3e 0a 29 50 be 35 dd e6 bd
       0.5168912 0.39925712 -0.20328155 -0.11272661
000030 81 0d cc be 5b 2d ef be bd d8 92 be 51 8a ae 3e
       -0.39854053 -0.4671429 -0.28680983 0.34089902
000040 69 c6 04 bf 6a 1a be bd e2 ad 04 bf 83 ec aa 3e
       -0.5186525 -0.09282382 -0.51827824 0.3338357
000050 3b 43 7e be 93 23 c4 3e ed e6 41 3e 01 c4 4f be
       -0.24830334 0.3830839 0.18935747 -0.20289613
000060 33 01 06 3e 07 ab 54 3e a9 3f bb be 26 69 30 be
       0.13086395 0.20768367 -0.36572006 -0.17227611
000070 59 7e e6 be 8c 5e 87 bd 00 bd 68 3e 41 2f 4a be
       -0.4501827 -0.0660983 0.22728348 -0.19744588
000080 0a 48 6e be ab c9 b3 3d 13 d5 10 be c7 c9 ec 3e
       -0.23269668 0.087786995 -0.14143781 0.46247694
000090 fa a3 d6 bc 59 d6 1b bd 6d 02 6e bc 00 18 b1 bb
       -0.026201237 -0.038046215 -0.014526946 -0.0054044724
0000a0 fd 7f 81 be 4d c4 16 3e a0 d4 e5 3d 94 87 82 3e
       -0.2529296 0.1472332 0.112221956 0.25494063
0000b0 3e d0 b5 3e 94 6d b4 be a6 94 ad 3e 74 06 84 3e
       0.3551044 -0.3523985 0.33902472 0.25786173
0000c0 36 eb 2b be 1c 70 fa 3e 87 f6 85 be 7a 15 4e be
       -0.16788945 0.48913658 -0.26164648 -0.2012538
0000d0 b8 c9 aa bd bc 66 0b 3e 70 3a e5 3e 95 03 00 be
       -0.08339256 0.13613409 0.44771147 -0.12501366
0000e0 09 77 84 be 88 4c 14 bd f7 8f 2f be d2 10 65 3e
       -0.25872067 -0.0362058 -0.17144762 0.22369698
0000f0 ba 35 93 be 73 27 06 bf a0 12 f7 3d 9c 45 67 be
       -0.28751928 -0.52403945 0.12064099 -0.22585148
000100 09 6e 06 be 25 c9 f5 3e 7a 87 c9 be 4a 05 6c be
       -0.13127913 0.48005024 -0.39361173 -0.23048893
000110 c6 30 cf be ff 41 3d bc bc 66 8a 3e bc a7 8d bd
       -0.404669 -0.011551379 0.27031505 -0.069167584
000120 03 75 0e 3e 40 af 87 be f8 d1 a6 be 2a e3 0b 3e
       0.13911824 -0.26500893 -0.32582068 0.13660875
000130 5d c6 c5 bd c9 f1 4d be 9d c1 ba 3e 93 a8 48 be
       -0.096569754 -0.20111765 0.3647584 -0.19595556
000140 4c 20 d3 3e 79 9b b5 3e ca e6 b7 be 57 be 7b 3d
       0.41235578 0.3547018 -0.35918266 0.06146082
000150 3c 05 80 3e 40 1d e6 bd 02 55 1d 3d 35 bf 90 be
       0.25003994 -0.11236048 0.038411148 -0.2827088
000160 b6 7c ea 3e 5f d2 8a be f2 6d d1 be c7 6f 06 3f
       0.45798272 -0.27113625 -0.40904194 0.5251431
000170 e9 f3 f2 3e 7e 54 e6 be f0 b7 16 3e 59 dc c5 be
       0.47451714 -0.44986337 0.14718604 -0.38644674
000180 26 ff 04 3f bd 44 63 3e 90 b7 b9 3e 4d 79 b7 be
       0.51951826 0.2219419 0.3627286 -0.35834733

hid2.bias f4 [10]
000000 1c 2a 75 bc ce be 2f ba 10 2b f6 3b b3 3d 7a bb
       -0.014963653 -0.00067041523 0.0075124577 -0.0038183748
000010 cb 08 a4 bb b5 6c 12 3c 3b 86 c9 3a 8c 52 06 bc
       -0.005005931 0.008937051 0.0015375087 -0.008198392
000020 4d 5c 8b bb 59 dc 8d bb
       -0.0042529465 -0.004329246

hid3.weight f4 [10, 10]
000000 62 78 d5 3e 4f 21 0b 3f 68 48 ae 3e c8 f6 9c bc
       0.41693407 0.543477 0.34039617 -0.019160643
000010 f6 47 a3 3c 59 56 f2 be 2a a1 dd 3e d1 b7 ff 3e
       0.019931775 -0.47331503 0.4328702 0.49944928
000020 fc e6 0b be 61 fb 74 be e1 aa 9e bd 93 d2 2b 3e
       -0.13662332 -0.23924018 -0.07747436 0.16779546
000030 0c a2 69 3d d3 95 b9 bd 08 8b fe be 1b 10 d3 3e
       0.057039306 -0.0906178 -0.49715447 0.41223225
000040 42 5d 5b 3e 26 ca bc 3c a0 08 bd 3d cd 19 84 3e
       0.21422294 0.02304561 0.09230161 0.25800934
000050 05 f9 10 bc 4c 55 fc be 3f cf 9f 3d 71 2e 9e 3e
       -0.008848433 -0.49283826 0.07803201 0.30894807
000060 5d 7e ec 3e 6a 2a b2 be b4 be c4 be a6 03 46 3e
       0.46190158 -0.34797984 -0.38426745 0.1933733
000070 38 f6 f5 be 08 96 e2 3e d2 e1 24 3d 86 d8 c4 3e
       -0.48039412 0.4425509 0.04025442 0.38446444
000080 8e ca 01 bf c4 1e 8f be 51 e6 69 3e 04 ef d0 3e
       -0.506997 -0.2795316 0.22841765 0.40807354
000090 bd b3 85 be d1 10 2f 3e 30 13 7d bd 41 fd 17 be
       -0.26113692 0.17096259 -0.061785877 -0.14842702
0000a0 9e fb b2 be fb 09 a8 be 74 7f 0d 3f 69 f1 a7 3e
       -0.34957594 -0.32820114 0.55272603 0.3280137
0000b0 34 27 18 3e 34 f2 db be 76 f3 a1 3e 12 7a dd 3c
       0.14858705 -0.42958224 0.31631058 0.027035747
0000c0 8b f3 38 3e df 13 ea be f8 cc 9f 3e da c7 09 be
       0.18061654 -0.45718285 0.31211066 -0.13455144
0000d0 2b 42 25 bc 4f 06 e0 be 92 1f fb be 2d d0 fa be
       -0.010086576 -0.43754813 -0.49047524 -0.4898695
0000e0 ad 9e a0 3d d8 67 ac bd 29 d6 9a be ed 14 14 be
       0.07842765 -0.08418244 -0.30241516 -0.14461108
0000f0 2e 60 af bd 3d cc e1 be 7a b7 0a bf 60 3e 94 bd
       -0.08563267 -0.44101134 -0.54186213 -0.072384596
000100 1d 35 a5 be ca 01 d9 bd b3 98 00 bd 6d 1a 68 3e
       -0.32267085 -0.10596044 -0.031395625 0.2266633
000110 8e 45 b8 be 35 5f a7 3d a0 47 fc 3e fc 59 14 be
       -0.35990566 0.08172456 0.49273396 -0.14487451
000120 0a 09 a7 bd a3 d0 b7 3e d8 3c f2 bc e2 72 36 3e
       -0.08156021 0.35901365 -0.029570028 0.17817262
000130 33 01 8b be 51 e6 cc 3e d7 03 c0 be cf 1b 08 be
       -0.27149352 0.40019467 -0.3750293 -0.13291858
000140 96 e3 c2 be 35 dc 1e 3e 1b 01 91 bd b5 40 02 3e
       -0.3806426 0.1551369 -0.07080289 0.12719996
000150 53 d5 0b bf 08 89 2c bd 9a 60 c7 3e 30 b3 35 be
       -0.5462238 -0.04212287 0.3894089 -0.17744136
000160 96 a9 a3 be f9 1e c8 be 98 95 ce be 83 62 43 be
       -0.3196532 -0.3908613 -0.40348506 -0.19080548
000170 b1 4d da 3e ea c7 a0 3e 2a e2 a4 be 06 19 79 3e
       0.426374 0.31402522 -0.322038 0.24325952
000180 97 da e4 be 51 4f 53 be 37 d9 c5 3e bb 40 fc be
       -0.4469802 -0.20635726 0.38642284 -0.49268135

hid3.bias f4 [10]
000000 fb 11 cf b8 12 32 47 3c fc 5b 80 bc 52 70 31 3c
       -9.873878e-05 0.012157934 -0.015668862 0.010830002
000010 9e c0 25 3c 5f ee c8 ba 22 51 3f bc a3 46 27 bc
       0.010116724 -0.0015329829 -0.011677058 -0.010209712
000020 56 22 fa ba a8 6a 10 3c
       -0.0019083719 0.008814491

oupt.weight f4 [1, 10]
000000 ee 8f 48 3d 74 2c ea be df 79 26 3f 11 70 f1 be
       0.048965387 -0.4573704 0.6502971 -0.47155812
000010 50 c6 b5 be 6e e2 9e 3d 94 4b 09 3f 22 5e 11 3f
       -0.35502863 0.07758032 0.5363095 0.5678426
000020 f5 03 dc 3d 0f ab 19 bf
       0.10742942 -0.6002664
